{"class_name": "Model", "config": {"name": "model_19", "layers": [{"name": "input_4", "class_name": "InputLayer", "config": {"batch_input_shape": [null, 5120, 768], "dtype": "float32", "sparse": false, "name": "input_4"}, "inbound_nodes": []}, {"name": "conv1d_4", "class_name": "Conv1D", "config": {"name": "conv1d_4", "trainable": false, "dtype": "float32", "filters": 16, "kernel_size": [8], "strides": [1], "padding": "valid", "data_format": "channels_last", "dilation_rate": [1], "activation": "linear", "use_bias": true, "kernel_initializer": {"class_name": "VarianceScaling", "config": {"scale": 1.0, "mode": "fan_avg", "distribution": "uniform", "seed": null}}, "bias_initializer": {"class_name": "Zeros", "config": {}}, "kernel_regularizer": null, "bias_regularizer": null, "activity_regularizer": null, "kernel_constraint": null, "bias_constraint": null}, "inbound_nodes": [[["input_4", 0, 0, {}]]]}, {"name": "average_pooling1d_4", "class_name": "AveragePooling1D", "config": {"name": "average_pooling1d_4", "trainable": false, "dtype": "float32", "strides": [4], "pool_size": [4], "padding": "valid", "data_format": "channels_last"}, "inbound_nodes": [[["conv1d_4", 0, 0, {}]]]}, {"name": "flatten_4", "class_name": "Flatten", "config": {"name": "flatten_4", "trainable": false, "dtype": "float32", "data_format": "channels_last"}, "inbound_nodes": [[["average_pooling1d_4", 0, 0, {}]]]}, {"name": "dropout_42", "class_name": "Dropout", "config": {"name": "dropout_42", "trainable": true, "dtype": "float32", "rate": 0.3, "noise_shape": null, "seed": null}, "inbound_nodes": [[["flatten_4", 0, 0, {}]]]}, {"name": "dense_75", "class_name": "Dense", "config": {"name": "dense_75", "trainable": true, "dtype": "float32", "units": 128, "activation": "relu", "use_bias": true, "kernel_initializer": {"class_name": "VarianceScaling", "config": {"scale": 1.0, "mode": "fan_avg", "distribution": "uniform", "seed": null}}, "bias_initializer": {"class_name": "Zeros", "config": {}}, "kernel_regularizer": null, "bias_regularizer": null, "activity_regularizer": null, "kernel_constraint": null, "bias_constraint": null}, "inbound_nodes": [[["dropout_42", 0, 0, {}]]]}, {"name": "dropout_43", "class_name": "Dropout", "config": {"name": "dropout_43", "trainable": true, "dtype": "float32", "rate": 0.3, "noise_shape": null, "seed": null}, "inbound_nodes": [[["dense_75", 0, 0, {}]]]}, {"name": "dense_76", "class_name": "Dense", "config": {"name": "dense_76", "trainable": true, "dtype": "float32", "units": 64, "activation": "relu", "use_bias": true, "kernel_initializer": {"class_name": "VarianceScaling", "config": {"scale": 1.0, "mode": "fan_avg", "distribution": "uniform", "seed": null}}, "bias_initializer": {"class_name": "Zeros", "config": {}}, "kernel_regularizer": null, "bias_regularizer": null, "activity_regularizer": null, "kernel_constraint": null, "bias_constraint": null}, "inbound_nodes": [[["dropout_43", 0, 0, {}]]]}, {"name": "dense_77", "class_name": "Dense", "config": {"name": "dense_77", "trainable": true, "dtype": "float32", "units": 3, "activation": "sigmoid", "use_bias": true, "kernel_initializer": {"class_name": "VarianceScaling", "config": {"scale": 1.0, "mode": "fan_avg", "distribution": "uniform", "seed": null}}, "bias_initializer": {"class_name": "Zeros", "config": {}}, "kernel_regularizer": null, "bias_regularizer": null, "activity_regularizer": null, "kernel_constraint": null, "bias_constraint": null}, "inbound_nodes": [[["dense_76", 0, 0, {}]]]}], "input_layers": [["input_4", 0, 0]], "output_layers": [["dense_77", 0, 0]]}, "keras_version": "2.3.1", "backend": "tensorflow"}